…
        (1): BatchNorm1d(128, eps=1e-05, momentum=0.1, affine=True, track_running_stats=True)
      )
      (3): None
      (4): None
      (5): Sequential(
        (0): Conv1d(128, 128, kernel_size=(1,), stride=(1,))
        (1): BatchNorm1d(128, eps=1e-05, momentum=0.1, affine=True, track_running_stats=True)
      )
    )
    (act): ReLU()
  )
  (gap): AdaptiveAvgPool1d(output_size=1)
  (fc): Linear(in_features=128, out_features=6, bias=True)
)
InceptionTime
======================================================================
Layer (type)         Output Shape         Param #    Trainable 
======================================================================
Conv1d               [32, 52]             29,984     True      
______________________________________________________________________
Conv1d               [32, 52]             14,624     True      
______________________________________________________________________
Conv1d               [32, 52]             6,944      True      
______________________________________________________________________
MaxPool1d            [24, 52]             0          False     
______________________________________________________________________
Conv1d               [32, 52]             800        True      
______________________________________________________________________
BatchNorm1d          [128, 52]            256        True      
______________________________________________________________________
ReLU                 [128, 52]            0          False     
______________________________________________________________________
Conv1d               [32, 52]             4,128      True      
______________________________________________________________________
Conv1d               [32, 52]             39,968     True      
______________________________________________________________________
Conv1d               [32, 52]             19,488     True      
______________________________________________________________________
Conv1d               [32, 52]             9,248      True      
______________________________________________________________________
MaxPool1d            [128, 52]            0          False     
______________________________________________________________________
Conv1d               [32, 52]             4,128      True      
______________________________________________________________________
BatchNorm1d          [128, 52]            256        True      
______________________________________________________________________
ReLU                 [128, 52]            0          False     
______________________________________________________________________
Conv1d               [32, 52]             4,128      True      
______________________________________________________________________
Conv1d               [32, 52]             39,968     True      
______________________________________________________________________
Conv1d               [32, 52]             19,488     True      
______________________________________________________________________
Conv1d               [32, 52]             9,248      True      
______________________________________________________________________
MaxPool1d            [128, 52]            0          False     
______________________________________________________________________
Conv1d               [32, 52]             4,128      True      
______________________________________________________________________
BatchNorm1d          [128, 52]            256        True      
______________________________________________________________________
ReLU                 [128, 52]            0          False     
______________________________________________________________________
Conv1d               [32, 52]             4,128      True      
______________________________________________________________________
Conv1d               [32, 52]             39,968     True      
______________________________________________________________________
Conv1d               [32, 52]             19,488     True      
______________________________________________________________________
Conv1d               [32, 52]             9,248      True      
______________________________________________________________________
MaxPool1d            [128, 52]            0          False     
______________________________________________________________________
Conv1d               [32, 52]             4,128      True      
______________________________________________________________________
BatchNorm1d          [128, 52]            256        True      
______________________________________________________________________
ReLU                 [128, 52]            0          False     
______________________________________________________________________
Conv1d               [32, 52]             4,128      True      
______________________________________________________________________
Conv1d               [32, 52]             39,968     True      
______________________________________________________________________
Conv1d               [32, 52]             19,488     True      
______________________________________________________________________
Conv1d               [32, 52]             9,248      True      
______________________________________________________________________
MaxPool1d            [128, 52]            0          False     
______________________________________________________________________
Conv1d               [32, 52]             4,128      True      
______________________________________________________________________
BatchNorm1d          [128, 52]            256        True      
______________________________________________________________________
ReLU                 [128, 52]            0          False     
______________________________________________________________________
Conv1d               [32, 52]             4,128      True      
______________________________________________________________________
Conv1d               [32, 52]             39,968     True      
______________________________________________________________________
Conv1d               [32, 52]             19,488     True      
______________________________________________________________________
Conv1d               [32, 52]             9,248      True      
______________________________________________________________________
MaxPool1d            [128, 52]            0          False     
______________________________________________________________________
Conv1d               [32, 52]             4,128      True      
______________________________________________________________________
BatchNorm1d          [128, 52]            256        True      
______________________________________________________________________
ReLU                 [128, 52]            0          False     
______________________________________________________________________
Conv1d               [128, 52]            3,200      True      
______________________________________________________________________
BatchNorm1d          [128, 52]            256        True      
______________________________________________________________________
Conv1d               [128, 52]            16,512     True      
______________________________________________________________________
BatchNorm1d          [128, 52]            256        True      
______________________________________________________________________
ReLU                 [128, 52]            0          False     
______________________________________________________________________
AdaptiveAvgPool1d    [128, 1]             0          False     
______________________________________________________________________
Linear               [6]                  774        True      
______________________________________________________________________

Total params: 459,686
Total trainable params: 459,686
Total non-trainable params: 0
Optimized with 00200EAA6AC80
Using true weight decay as discussed in https://www.fast.ai/2018/07/02/adam-weight-decay/ 
…
